Python Chatbot/Backend/learn/data.pth (torch, 4951 bytes, 6 tensors)

l1.weight f4 [8, 52]
00000000: 9229 303f 3eb8 fe3e e4ba e2be 2caf 3cbe
00000010: dc92 aabe b032 5a3f 73db 053f 4c55 b63e
00000020: 1850 913e 59b9 0dbf 7e7c e93e 6bfa e2bd
00000030: f46a 8fbe ce8c adbe f8d5 903e 012e 8bbe
00000040: c789 cb3e aa5f 5d3e 2009 473e 6b4c fdbe
00000050: cd16 aabe 69f6 e83e 7f39 1f3f 40be 023f
00000060: a803 ea3d c035 653b 1763 4abe a5c7 103f
00000070: d386 f73e 1750 afbe 4bd4 c73e 7b16 e63e
00000080: 120b 1c3f 7e04 06be 9d16 32bd cbf0 81be
00000090: 45c1 80be 277f 1a3f a384 a1be b3cd 6b3f
000000a0: a8c9 d63e 21fd 063e 9d67 bbbd 3cfe 60be
000000b0: 248c d6be a686 80be 9dc5 57bd f38a 0a3f
000000c0: 22f7 ea3e f78c 523f 72af 533f 6a7f f43e
000000d0: 5603 44be fc8e e43c 52e7 a13e dfe6 333d
000000e0: 2629 593f a0b6 e43d 79bc 0f3f 47a1 6ebd
000000f0: a3cd 0e3f 0919 ae3e 5807 1abf 090e 1dbd
00000100: 39c0 343f d595 d03e 7bc2 a8be e9b9 7e3e
00000110: f7be bc3e cb36 82bc 737c 6cbe 4e58 fd3e
00000120: 778a 3f3f d983 0fbf ee98 253c c57f 0fbf
00000130: 3e1f 1ebf f05c 633f 1ffe 42bd ef63 1c3f
00000140: d9ce bc3e 5283 c03e 4a3e 6f3d 092b 413f
00000150: 833c 893e aa4d 753e 79f3 4e3d 3bfc a83d
00000160: 0f92 573e d2c1 c4be 710c 493f 05c2 c7be
00000170: 5075 353d 85bb f6bd c0cb af3d 98f0 933e
00000180: 70b5 e33d b96d 383f 5c8d 3bbf f1c9 1e3f
00000190: 78af 133f 39ee 243f 32d9 293d f534 c93e
000001a0: 1518 503d 1172 8d3e 71c2 e93e 6aa9 dbbd
000001b0: c2fc 103f ca1f cbbd 707d b63e 2698 973e
000001c0: 8a5a eabe 1db5 4c3f ca78 0abe deb8 86bc
000001d0: 2169 99ba b4f9 433f 6575 1c3f 11ca f23e
000001e0: 4c15 7cbe 8c97 cd3e d78b 113f 412c 503f
000001f0: 07d7 c63e a4d8 e73e 58d4 f83d 2f0f 2b3f
00000200: 41c9 273f 693c 7c3e 43db 04bd 2b4f 0c3f
00000210: 620e 98be d379 b53e 8707 903e 976d 98bd
00000220: 7a60 a8be 584e 0a3f 08f4 81be 390b 5ebd
00000230: 8843 0f3f ee2d 3ebe 75f1 1f3f d51c 88be
00000240: 8d9e 3dbd 61e8 9d3e 0ad1 093f 7342 ed3e
00000250: a04d 40be 03b8 d73e ba6f 0f3f f51d a93c
00000260: 70ee dd3e 1567 e5be 092f 2f3e 4057 e1be
00000270: 9469 0b3f e417 f7bc 8d95 9e3e b8df eabd
00000280: 4ba0 85be 8ed2 183f ab36 a53d 5f5b 08bc
00000290: 758d c83d 7009 523f 1fb5 4d3f d04c 2ebe
000002a0: 7e6f fbbe 2d9f 613f 0cd5 083f fdd4 3ebc
000002b0: eb2d b4bd 88ab 04bd deac ee3e ec2b 4b3f
000002c0: 0895 67bd 9d0f 313f aaa0 13bf 8288 323f
000002d0: cf85 de3e e90c 9ebe cc9d 71be 56a2 3d3d
000002e0: 79ef d7bd 6530 0f3f 60fd 6d3c 4bbf 093e
000002f0: 9cdb cd3e 3398 c53e 622f 58be 0faf 50be
00000300: 8f88 f43e 7bf7 133f 669b 2dbe 97fe 3ebf
00000310: 3ae4 1abf d017 bf3e f344 ee3e e3ea da3e
00000320: b239 c0be 5b89 5bbe 791a ec3e dbd9 b93e
00000330: 1310 7e3e c5a0 e33e 8a98 d33e 3bbd 203f
00000340: 75b4 023f 5fd6 a63e 8af4 c7be bf29 473f
00000350: a6b5 f13d e885 063e fac6 2cbd 98d1 9d3e
00000360: e832 15bd 7ac6 32bf 983e 973e 9613 333f
00000370: 4cfb eabe 9bc2 2ebf 9bc7 8f3e c800 7d3e
00000380: 4a98 49be 5ba4 e53e db9f b83e b1fb 12bf
00000390: db9b 09bf 1fdd 423f 598b a03e 9b08 123f
000003a0: 68c0 003f 8feb cb3d d696 663f 2768 a53d
000003b0: fa4e 22bd 85ad fbbe 955e 943e bd06 d03d
000003c0: 6f1d a9be 2bba 76be c323 333f c971 2b3f
000003d0: 493e e2be d4b0 273e aafa 8abd c117 213f
000003e0: 078d dc3d 27b8 a53e 7c2f afbe 0938 60be
000003f0: 989f 1cbf 32e4 fc3d 3ced 033f 06a8 d03e
0.6881343 0.4974994 -0.4428321 -0.18426198 -0.3331517 0.85233593 0.5228798 0.3561195
0.2838142 -0.55360943 0.45602793 -0.1108292 -0.28011286 -0.33896488 0.28288245 -0.27183536
0.39753553 0.21618524 0.19437075 -0.49472365 -0.3322052 0.45500496 0.6219711 0.5107155
0.114264786 0.0034974664 -0.19764362 0.56554633 0.4834505 -0.3424079 0.39029154 0.44939026
0.6095439 -0.13087651 -0.043478597 -0.25379023 -0.25147453 0.6035027 -0.31546506 0.9211075
0.41950727 0.13182499 -0.09150622 -0.21971983 -0.41903794 -0.2510273 -0.052678693 0.5411827
0.45891672 0.82246345 0.82689583 0.4775346 -0.19141898 0.027900212 0.31621796 0.043921348
0.8482841 0.111676455 0.5614696 -0.058259275 0.55782527 0.34003475 -0.60167456 -0.038343463
0.7060581 0.40739313 -0.32960877 0.24875607 0.36864445 -0.015895268 -0.23094349 0.49481434
0.74820656 -0.5606056 0.010107262 -0.56054336 -0.6176642 0.88813686 -0.04760563 0.61089987
0.36876562 0.3760019 0.058409013 0.7545629 0.2680398 0.23955408 0.050525162 0.08251234
0.2105181 -0.38429123 0.7853461 -0.39015213 0.04430133 -0.12047485 0.08583784 0.28894496
0.11118591 0.72042423 -0.7326257 0.6202689 0.5768962 0.64426 0.0414669 0.39298216
0.050804216 0.27626088 0.4565616 -0.107256725 0.5663568 -0.09918173 0.35642576 0.29608268
-0.457722 0.79963857 -0.1352264 -0.016445573 -0.0011704304 0.7655289 0.6111663 0.4741979
-0.24617499 0.40154684 0.56854004 0.81317526 0.38835928 0.4528247 0.12149876 0.66820043
0.65541464 0.2463242 -0.032435667 0.548083 -0.29698473 0.35444507 0.28130743 -0.074427776
-0.32886106 0.54025793 -0.25381494 -0.05420992 0.5596242 -0.18572208 0.6247781 -0.26584497
-0.046293784 0.30841354 0.53834593 0.4633976 -0.18779612 0.42132577 0.56029856 0.020644167
0.43345976 -0.44805208 0.17107786 -0.4401188 0.54457974 -0.03016276 0.30973473 -0.11468452
-0.26098856 0.5969628 0.08067068 -0.008322566 0.09792606 0.8204565 0.80354494 -0.17021489
-0.491085 0.8813351 0.53450084 -0.01164746 -0.08797821 -0.032390147 0.46616262 0.79363894
-0.05653861 0.6916445 -0.5766703 0.69739544 0.43461463 -0.30869225 -0.23595351 0.046297394
-0.10543723 0.5593322 0.014525741 0.13451879 0.4020661 0.3859268 -0.21111825 -0.2037928
0.47760436 0.577995 -0.16953811 -0.74607223 -0.60504496 0.37322855 0.4653698 0.4275733
-0.37544018 -0.21439116 0.46113947 0.36299023 0.2481082 0.44458595 0.41327316 0.6278874
0.51056606 0.32585427 -0.39053756 0.77798074 0.11802225 0.13137019 -0.042181946 0.3082397
-0.0364255 -0.698341 0.29539943 0.6995176 -0.4589485 -0.68265694 0.28081974 0.2470733
-0.19687 0.44851956 0.3605946 -0.574153 -0.5375344 0.76118654 0.31356314 0.5704438
0.5029359 0.099570386 0.9007391 0.08076506 -0.0396261 -0.49155822 0.2897841 0.10157535
-0.3303027 -0.24094455 0.69976443 0.669705 -0.44188145 0.16376048 -0.067860916 0.6292687
0.10769086 0.3236706 -0.34215915 -0.21896376 -0.6118102 0.12348212 0.51533866 0.40753192

l1.bias f4 [8]
00000000: ca87 413f 8579 0f3f 26d0 863f 8b5f 613f
00000010: 6598 5a3f 1dc3 c63e a65f 1b3f cc4e 823e
0.7559782 0.560448 1.0532272 0.8803641 0.85388786 0.38820735 0.6069282 0.25450742

l2.weight f4 [8, 8]
00000000: c469 b13a 7ff1 373f 792a 353d 626b 96bf
00000010: fd71 873f 7daa 473f 9872 a13f 45dc 2e3f
00000020: d463 8a3d 4370 07bf b1a0 4d3f a460 423f
00000030: 214d 783f 30bb 91bf 811a a1bf 0486 49bf
00000040: 64cf 9e3d 4871 723d 5011 c8bd 34e8 a7be
00000050: 6e0b a8be b282 76be f819 1bbe 6000 0f3e
00000060: 6886 d4bd 4b05 8ebe 00bf 58be d8e8 36bd
00000070: e058 7ebc 507d 63be f093 49bd 8f24 a73e
00000080: f5c3 b53f 438a 37bf 4b43 993f 0c18 a43f
00000090: 4c5b 893f 972f 3abf 1dfe 893e faef 23bf
000000a0: e8c0 623f 244f 2a3f 3220 25be 03ba af3e
000000b0: 503a 023d e9a3 803f d45e 83bf 4fd5 9d3f
000000c0: 760a 8abf 740d be3f fae1 8e3f fb9e 103f
000000d0: 2de3 6fbf 19bd 983f 1d48 593f 0e4b c4bc
000000e0: 1aaf 7dbc fda5 4bbe fd0e 8dbe d9be 793e
000000f0: c004 a4be 26a8 5bbe 3c54 10bd 540c 86be
0.0013535549 0.7185287 0.04422996 -1.1751521 1.0581661 0.7799452 1.2613096 0.68304855
0.06757322 -0.5290567 0.8032332 0.7592871 0.9699269 -1.138525 -1.2586213 -0.78720117
0.077544 0.059190065 -0.09768927 -0.32794344 -0.3282122 -0.24073294 -0.15146625 0.13964987
-0.103771985 -0.27738413 -0.2116661 -0.04465565 -0.015524119 -0.22215772 -0.04921335 0.3264508
1.4200426 -0.71695346 1.1973661 1.2819839 1.0730987 -0.72728866 0.26951686 -0.6403805
0.885756 0.6652701 -0.16125563 0.34321603 0.031793892 1.0050021 -1.0263314 1.2330722
-1.0784442 1.4847856 1.1162713 0.56492585 -0.9370602 1.1932708 0.8487566 -0.02396157
-0.015483642 -0.19887538 -0.27550498 0.24389209 -0.32034874 -0.21450862 -0.035236582 -0.2618128

l2.bias f4 [8]
00000000: 1116 533e 7fe6 953e 1270 89be e34b a5be
00000010: ab7f 673f 3fbd 53be 621f d13e 75ba 0cbe
0.20613886 0.29277417 -0.26843315 -0.3228446 0.9042918 -0.2067766 0.40844256 -0.13743003

l3.weight f4 [8, 8]
00000000: 1b27 73be 4ec7 c3be 2f62 b03e ecc3 f2bd
00000010: a328 8abf 49bf f53e e73a 60be ad14 763d
00000020: 6127 68bf a591 debe 006c 233b fe44 463e
00000030: 12f9 a03e 3a23 8fbf 840a 373f 28d9 32be
00000040: 0566 ccbf 8a2e 903f 6ae9 3c3e 8087 563b
00000050: eb39 243f be1c 14bf bab1 5abf 9527 403e
00000060: dc8e a3bf 6704 01be 2f31 903e 9108 913e
00000070: 9f05 413e a14f 403f bba2 2ebf c612 913e
00000080: 4b41 323f 87c5 71be d1cb 17be 6a68 613e
00000090: f922 0ebf 3b48 c1bf 6e32 45be 7bd8 233e
000000a0: 62e8 603e 64f2 53bf b2db 5d3e 079e 9f3e
000000b0: e018 95bf 7dee bbbe 1d02 7b3e c46e 68ba
000000c0: 96c6 7b3e 06b1 40bf ca9d 6bbe 4e6b a5be
000000d0: b6cf 343f c0e5 babf 5e5b 9ebf dfb1 8cbd
000000e0: db02 bb3e d22b fcbe 2dcb 8dbe df47 5fbe
000000f0: c8da babf 8cc3 01c0 a65e fc3e ff05 33be
-0.23745386 -0.38237995 0.34449908 -0.118537754 -1.0793651 0.47997501 -0.2189747 0.06007831
-0.9068509 -0.43470493 0.00249362 0.19362256 0.31440026 -1.1182625 0.7150042 -0.17465651
-1.5968634 1.1264203 0.18448415 0.0032734573 0.64150876 -0.5785636 -0.8542744 0.187651
-1.2777972 -0.12599336 0.28162524 0.28326848 0.188498 0.75121504 -0.68217057 0.28334635
0.6963088 -0.23610507 -0.14823844 0.22012487 -0.55522114 -1.5100168 -0.19257519 0.1600055
0.21963647 -0.82791734 0.21665838 0.31175253 -1.1648216 -0.3670539 0.24512525 -0.0008866603
0.24587473 -0.75270116 -0.2300941 -0.3230843 0.7062944 -1.4601364 -1.2371633 -0.06869864
0.36525616 -0.49252182 -0.27694073 -0.2180476 -1.4598017 -2.0275602 0.4929096 -0.17482756

l3.bias f4 [8]
00000000: 1068 6ebe 2092 bd3e 2072 3a3e 88d8 c1bd
00000010: e708 9dbd 4016 1ebf c6b0 2e3e bf3b 02be
-0.23281884 0.37025547 0.18207598 -0.09465128 -0.076677136 -0.617527 0.17059621 -0.12718104
